scanner_ros_ws/src/surface_scanner/data/camera_params/camera_params.npz (npz, 1554 bytes, 4 tensors)

mtx f8 [3, 3]
952.1593684305474 0.0 478.8845431206193 0.0 956.7406415431346 349.35248862503164 0.0 0.0
1.0
00000000: baa9 f462 46c1 8d40 0000 0000 0000 0000
00000010: 63ef af16 27ee 7d40 0000 0000 0000 0000
00000020: 942e 79d5 ece5 8d40 91cb 1ccb a3d5 7540
00000030: 0000 0000 0000 0000 0000 0000 0000 0000
00000040: 0000 0000 0000 f03f

dist f8 [1, 5]
0.05920208553874055 -0.34422937292862194 0.001457658863301991 0.001629037872085681 0.586879885985165
00000000: 85de 7c5a bc4f ae3f e543 c3a2 da07 d6bf
00000010: 9700 6249 dde1 573f ff85 9c18 aeb0 5a3f
00000020: 5991 9f53 b8c7 e23f

rvecs f8 [14, 3, 1]
0.09094907649729142 0.036379189510718044 -0.05494070420481653 0.09749280664784346 0.029560224051236147 -0.04616772648431658 0.15771959078627282 0.5401812522180653
-0.08390682125554451 0.04638860207879037 -0.20293512667103922 -0.037485054744144035 -0.36187702857017684 -0.2526881243110141 -0.1895937908760787 0.41083595491450314
0.1993233848141937 -0.18522081033281207 0.7365001032825297 0.047349200165439836 0.0031142991111157573 -0.579134039572653 0.018854488782937304 0.1789267594747183
-0.2025523305067873 -0.24837355208664078 -0.06392457495198306 0.01613833691980897 0.6465832817853854 -0.06881797938765168 -0.27002891958849673 -0.07312663158877314
0.018936536356307248 -0.26590431738495907 -0.30895417040796463 -0.15689058708352108 -0.7761333713647064 0.049761251405799366 0.015405123222583082 0.7851664432830224
0.020231676286395762 -0.0141430805733353
00000000: c642 284d 7048 b73f ce33 680a 4ba0 a23f
00000010: 8ccb 8e1f 3021 acbf 3ad2 25e0 49f5 b83f
00000020: dffd 3f0e 0945 9e3f e4f9 c2d6 4ba3 a7bf
00000030: 2bca 2ed2 2730 c43f 9e0b 8631 2a49 e13f
00000040: 9131 34dd ea7a b5bf d1ce ab31 3fc0 a73f
00000050: 6580 213a c7f9 c9bf 3703 6eb8 3d31 a3bf
00000060: fb7b b844 fe28 d7bf 8337 80cf 0a2c d0bf
00000070: 9e30 abfd 9b44 c8bf f93c 98e3 224b da3f
00000080: 2670 8dbd 6d83 c93f 8e82 75c5 50b5 c7bf
00000090: b92b 23aa 6891 e73f bc96 6784 273e a83f
000000a0: 626a a19a 2883 693f 94e0 fe1b 4488 e2bf
000000b0: 6972 d252 974e 933f be5d 2972 12e7 c63f
000000c0: 87ab a019 3ced c9bf 0fa5 b35d b4ca cfbf
000000d0: 0458 d466 5c5d b0bf cd2f 2175 9186 903f
000000e0: 1c13 2d6c cfb0 e43f a9c5 d81a 0e9e b1bf
000000f0: eed5 a660 2748 d1bf a4f2 234b 6db8 b2bf
00000100: 4b40 6671 1964 933f 8f26 c28a 9304 d1bf
00000110: 795c 77b6 e7c5 d3bf 9f77 49a2 fd14 c4bf
00000120: 750f eba6 15d6 e8bf f3b8 ca86 4e7a a93f
00000130: df6a 74a3 b88c 8f3f ab26 7a60 1520 e93f
00000140: 1d2b f9cf 9cb7 943f e1a3 3724 0cf7 8cbf

tvecs f8 [14, 3, 1]
-5.116930653081575 -4.911742864514762 20.788375617522245 -3.7064986365019332 0.5632871006928266 21.254850405748932 -0.39317038269175103 -2.142715316604864
20.239677142586217 -8.086040654461954 -2.8560989740054645 18.088725845777077 -6.88604330641307 -0.501053041058353 17.13315079288562 -2.581859525130942
-4.091637691425701 18.791329672519904 -3.323124352586181 -5.723954173301771 16.877659462925735 -5.587664768352943 0.08025922635963777 19.59859903698492
-6.22915639136336 -1.7468684065406463 17.634749507713146 -1.7596392737052182 -3.2544516967990837 19.403930435030013 -5.494218678279405 -2.3003845931013287
16.044688580298466 -6.766377469926525 -0.9857752790787956 16.6175027780523 -3.7982809462535894 1.2310708059649416 19.14694047953972 -3.8285537538863337
-4.31158220949014 15.808205476547016
00000000: 888a 4bab bc77 14c0 1ecf e5eb 9fa5 13c0
00000010: cb38 06fc d2c9 3440 1f8e d3c1 e8a6 0dc0
00000020: ca7f 77ab 7206 e23f 6210 4ee0 3d41 3540
00000030: 15ae da1b b429 d9bf 40a6 8bed 4724 01c0
00000040: ac01 317b 5b3d 3440 c014 4a85 0d2c 20c0
00000050: e5f0 3b6b 4ad9 06c0 28ec adbc b616 3240
00000060: 0e89 bfef 4e8b 1bc0 e905 1d63 a008 e0bf
00000070: 55e1 9c2b 1622 3140 8a6d 7af7 a5a7 04c0
00000080: 6e04 5f45 d65d 10c0 cfd3 d794 94ca 3240
00000090: c930 7738 c295 0ac0 0989 283e 54e5 16c0
000000a0: 7c4a 624a aee0 3040 6759 04cb c459 16c0
000000b0: 4fba 6a60 de8b b43f 6f44 57c9 3d99 3340
000000c0: cf4c 1af9 a7ea 18c0 931f 4849 2cf3 fbbf
000000d0: b2c7 98f1 7ea2 3140 3f23 d582 7b27 fcbf
000000e0: 684f a1f8 1d09 0ac0 1e50 28fc 6767 3340
000000f0: 2b21 1176 14fa 15c0 63bd 9c09 3067 02c0
00000100: f7e2 f6b5 700b 3040 10e7 6641 c510 1bc0
00000110: 8d28 1b99 788b efbf 7dec 7ca9 149e 3040
00000120: cc6e e91e e162 0ec0 67e0 2a4d 77b2 f33f
00000130: e714 2ae4 9d25 3340 d35b 5fca e0a0 0ec0
00000140: 301a 1f68 0f3f 11c0 606f b41b cd9d 2f40
